model_file.pth (torch_old, 790984 bytes, 8 tensors)

conv1.weight f4 [6, 1, 5, 5]
000000 a0 c3 06 3e 5d 9d e3 3d 1a aa a8 3e 93 f6 ed 3d
       0.13160563 0.11113999 0.32942277 0.11619296
000010 13 1e 4a bf c9 7a f1 ba 39 19 d2 3e af db ba 3e
       -0.7895214 -0.0018423434 0.41034868 0.3649573
000020 2f 15 ac 3d c5 21 b3 be 17 12 1b 3e e6 59 46 3e
       0.08402478 -0.34986702 0.1514362 0.19370231
000030 a0 1c fa 3e ce e2 92 3e c2 d0 29 bf ae e6 92 bd
       0.48849964 0.28688663 -0.66334164 -0.07172905
000040 b3 e1 a8 3d 58 13 dc 3e 1a 4c 21 3e bf f0 32 bf
       0.08246174 0.42983508 0.15751687 -0.698986
000050 90 5e b1 bc 10 b9 43 3c f2 88 9f bd 55 60 74 be
       -0.021651536 0.011945978 -0.07789792 -0.23864873
000060 90 d7 b5 be ce d9 56 3d 3f d7 8d 3e 36 2e 19 3e
       -0.35516024 0.05245381 0.27703282 0.14959034
000070 a8 ef f3 3d da 03 59 3e 3e f9 b8 3d a4 30 89 3e
       0.11910945 0.21192876 0.09031914 0.26794922
000080 3b b5 a5 3e 4f 08 a5 3e 16 a7 f6 3e 32 90 f5 bc
       0.3236483 0.322329 0.4817435 -0.029975984
000090 30 d9 57 3e db 23 10 3e 22 11 ba 3e a2 95 b2 3e
       0.21078944 0.14076178 0.36341196 0.34879786
0000a0 5e f8 b8 be 74 93 a8 be 55 41 df be 5e b2 a6 be
       -0.3612699 -0.32924998 -0.43604532 -0.32557958
0000b0 9b 78 54 bd f0 6f 09 bf 1b a5 f5 be 12 3b c7 be
       -0.05187283 -0.5368643 -0.47977528 -0.38912255
0000c0 44 53 14 be 7f 9b 3f be 77 dc 94 bb 2a de 5c be
       -0.14484888 -0.18711661 -0.004542883 -0.21569124
0000d0 51 ac c4 bc 03 b9 36 3e 23 e3 9e 3e 07 95 41 3e
       -0.024007948 0.17844014 0.31032667 0.18904506
0000e0 11 65 9c be 68 d5 7f be 7f 56 19 be 5f 5e 9c bd
       -0.30545858 -0.24983752 -0.14974402 -0.07635187
0000f0 f2 2f 7c bd 44 35 bd 3d 55 5a 27 be ea 68 d8 be
       -0.06156916 0.09238675 -0.16343053 -0.42267543
000100 85 e6 35 be 5f 85 2e bd f8 a2 33 3e 02 02 eb 3d
       -0.17763717 -0.04260766 0.17542636 0.11474992
000110 95 65 97 be 6c 2a 3a be 1d c9 ac 3d b5 d6 40 bd
       -0.29569688 -0.18180245 0.08436797 -0.04707976
000120 2a 1f 5b 3e 1c df 12 3e f0 db a3 bc b5 95 9e 3d
       0.21398607 0.14342922 -0.020002335 0.07743398
000130 c5 0d 81 3d ed 62 71 3e 01 89 18 3e fd 01 1f be
       0.063014545 0.23572893 0.14896013 -0.15528102
000140 0a b5 6a bd d6 77 34 3e 5a 17 ad 3d 83 d0 27 3e
       -0.05730156 0.17623839 0.084517196 0.16388135
000150 9c c2 05 be d4 a2 de 3d cb a1 de 3d f5 11 0a 3d
       -0.13062519 0.10870901 0.10870703 0.03370853
000160 2a 24 93 3e 4b 4c 99 3d d0 94 12 3e 27 76 55 3e
       0.28738528 0.07485255 0.1431458 0.20845853
000170 0a 2f 00 3d b9 0e 23 3e 62 ba 4d 3e dd df 57 bc
       0.03129486 0.15923585 0.2009063 -0.013175932
000180 a9 07 30 3e 38 e7 05 3e b7 5c 67 3e b2 81 68 be
       0.17190422 0.13076484 0.22593962 -0.22705725
000190 64 73 ee be 90 0a 01 bf 7d d7 1b bf eb b9 7a be
       -0.4657241 -0.5040674 -0.60875684 -0.24484985
0001a0 5b e9 a9 be 50 8d 00 3e 39 0e 49 be 72 df 05 bf
       -0.3318585 0.12553906 -0.19634332 -0.52294075
0001b0 1f 40 2c be 19 6d 64 be b2 df b7 3e 7c 8a 92 3d
       -0.16821335 -0.22307242 0.35912853 0.0715532
0001c0 b1 8e f9 3d ec af 90 3d 91 f6 29 3e dd 39 8c 3e
       0.12185419 0.070648044 0.16597964 0.27387896
0001d0 41 84 79 3e ec 92 94 3a 07 1d ef 3e 4b 8a 70 3e
       0.24366857 0.001133529 0.46701834 0.23490255
0001e0 e4 23 bd 3e 41 95 b7 bd 61 c3 44 3d cb 61 c0 3e
       0.36941445 -0.08964015 0.04803789 0.3757461
0001f0 c7 d2 ca 3e 3d 59 ec 3e cd 69 07 3f 6b ad 08 3f
       0.39613935 0.46161833 0.52895814 0.53389615
000200 27 25 91 be 68 8f 16 bf d8 8d f9 3e c7 5d 1f 3f
       -0.28348657 -0.5881257 0.4874103 0.6225247
000210 5f 8b 12 3f e1 d0 1a 3e b4 21 f8 be 85 61 b2 3e
       0.57243913 0.15118743 -0.48463213 0.34840026
000220 4b 1f 1b 3f ce 98 1b 3e ad 00 42 be 2a 2c 10 be
       0.60594624 0.15195009 -0.1894557 -0.14079347
000230 b9 e2 93 bc 70 d1 61 3e 9e 96 c3 be 99 cc dd be
       -0.018052446 0.2205255 -0.3820085 -0.43320158
000240 83 a9 fa be 33 8c 80 be 53 cd c4 be 3d 5e d9 be
       -0.48957452 -0.25106964 -0.384379 -0.4245471
000250 8a d8 14 bf 12 ea 29 bd
       -0.5814291 -0.041482992

conv1.bias f4 [6]
000000 57 74 67 3e cd 5f 34 3e eb 0d 56 be 2e 2c cd be
       0.22602974 0.1761467 -0.20903747 -0.4007277
000010 24 27 06 3e 53 87 6c 3d
       0.13100868 0.057746243

conv2.weight f4 [16, 6, 5, 5]
000000 4a 3a 21 3d d7 2e 84 bd a2 53 dd 3c 37 ad e9 3d
       0.03936223 -0.064542465 0.027017418 0.11409991
000010 75 c2 08 3e 96 47 02 be 75 1a 44 bd 04 b4 b3 3b
       0.1335543 -0.1272262 -0.047876794 0.005484106
000020 79 91 bc 3d 51 ce fa 3d b6 cb 92 bb 62 eb d3 bd
       0.09207434 0.12246383 -0.0044798506 -0.1034763
000030 bc c5 0a bd 1f 54 39 3c d9 6f 39 3e d7 65 ca bc
       -0.03387998 0.01131156 0.18109073 -0.024706764
000040 cb 13 b7 be 38 0d c1 be 44 55 8f be c7 63 50 bd
       -0.35757288 -0.37705398 -0.2799474 -0.050876405
000050 69 0c 04 be b5 a5 ad be 58 14 64 bd 58 42 0e 3e
       -0.12895359 -0.33915487 -0.055683464 0.13892496
000060 65 bc fb 3d d2 88 45 ba a6 31 95 3d f9 6f 52 be
       0.12291793 -0.00075353414 0.0728486 -0.20550527
000070 4e 14 ef bd d4 43 7e 3c 14 2c 56 bd ec 23 38 3e
       -0.11673795 0.015519101 -0.05228813 0.17982453
000080 39 f7 f8 3d 0e 8d bd 3d 31 2c 09 be 4f dd 65 3d
       0.12156529 0.0925542 -0.13395764 0.05611926
000090 e4 7f fc 3d 33 27 a3 3e a6 ea bd 3e e5 b3 99 3e
       0.12329081 0.31865844 0.37093085 0.3002006
0000a0 f6 eb 85 bd 8a 9a 79 be 35 f6 a9 be 1a 15 02 bf
       -0.065391466 -0.24375358 -0.33195654 -0.5081345
0000b0 60 1c d0 be 1b 95 0f 3e b2 97 66 3e bf 65 56 3e
       -0.40646648 0.14021723 0.22518805 0.2093725
0000c0 10 02 86 3e f2 75 1d 3e 8c 57 0a be 71 1f d3 bd
       0.2617345 0.15377024 -0.13509959 -0.10308731
0000d0 16 c1 e5 bd 54 7f a6 3c b2 ef a5 3d 7f 8c ba 3d
       -0.11218469 0.020324387 0.08102359 0.09108829
0000e0 0a 20 a2 3d 23 2c 46 bc 34 0a 0d 3d d4 99 9c bb
       0.07916267 -0.012095484 0.03443356 -0.00477908
0000f0 1a 68 2e 3e 8b 9b b7 3d ae 89 ab 3d f1 c8 2e 3d
       0.17031899 0.08965214 0.0837587 0.0426721
000100 b0 46 47 bc 27 4b af 3d da a4 c5 3d b7 1e ef 3d
       -0.012162849 0.08559256 0.096505836 0.1167578
000110 31 6c 7d 3c b5 ec 2f 3d d2 6c 02 3e 15 b5 da bc
       0.015467689 0.04295035 0.12736824 -0.026697675
000120 dd a5 83 bd 07 bc ea bd 37 35 1c bc 29 25 f5 3c
       -0.0642812 -0.114616446 -0.009534172 0.029924946
000130 05 e0 2d bd 6e d9 5c bb 9b 81 91 bc b1 1e f9 bc
       -0.04244997 -0.0033698934 -0.017761996 -0.030410143
000140 2b 59 8c bc 80 ef 89 3d 3d e7 5a 3d f8 6c e5 bc
       -0.017132362 0.06735134 0.053443182 -0.028006062
000150 f0 ca cb bc 6e 36 67 bc b6 f4 f2 3d 0c d9 19 3e
       -0.024877042 -0.014112098 0.11863081 0.15024203
000160 f5 ef fb 3d 46 1c 40 b8 b0 ac 80 bd e1 d0 8c bc
       0.123016275 -4.58027e-05 -0.062829375 -0.017189445
000170 f8 df 16 3e bd a0 30 3d 42 6e c7 3d b4 d9 25 bd
       0.14733875 0.043122042 0.09737827 -0.04049082
000180 be 04 0f be 02 d9 9e bd 02 8e 0b 3c ec 84 e5 3b
       -0.13966653 -0.07756235 0.008517744 0.007004371
000190 b2 29 a1 bc 76 0f be bd 57 f2 1f 3e 63 7a 01 3d
       -0.019673202 -0.09280293 0.15619789 0.031610858
0001a0 93 89 06 bd 8d e2 a4 bd a8 6e ef be fc c6 d6 be
       -0.032846045 -0.08051024 -0.46764112 -0.41948688
0001b0 b5 26 cd be d2 e9 82 bd 5c ad 01 3b 4f ed 31 be
       -0.40068594 -0.06392254 0.0019787168 -0.17375682
0001c0 89 44 90 be fb c6 ec be 09 2a c2 bd 7d 38 5c 3e
       -0.28177288 -0.4624556 -0.09480674 0.21505924
0001d0 3e 4f 91 3e e2 99 0f 3f 92 82 02 3f b7 49 a2 3e
       0.2838077 0.5609418 0.50980484 0.31696865
0001e0 bf 38 03 be 7d cb 14 bd c0 21 1d 3d d7 c2 89 3c
       -0.12814616 -0.036326874 0.038362265 0.01681654
0001f0 f4 a8 69 3a 28 58 d6 3d 3f f0 92 3d 7c df 42 be
       0.00089134206 0.10466033 0.071747296 -0.19030565
000200 f0 83 ef 3b 5e 31 18 bd ad 17 ec 3d 45 83 2a bc
       0.0073094293 -0.037156455 0.11527953 -0.010407274
000210 5b 4a 7d 3c 75 52 ab 3d 71 d4 32 be c5 ec 05 3e
       0.015459622 0.08365337 -0.17463852 0.13078602
000220 bd 4b 2c 3d b5 21 9a 3d c3 bd eb bc 01 5b 8c 3d
       0.042064417 0.0752596 -0.028777009 0.06853295
000230 eb 54 e2 bd c4 1b bb be 99 eb 28 bf 7c ed 07 bf
       -0.11051353 -0.3654462 -0.65984493 -0.5309675
000240 55 a4 ec be 67 02 be 3d b9 3b bc be 3b 87 80 be
       -0.46219125 0.09277802 -0.36764315 -0.25103173
000250 91 e7 24 3e 0a e3 72 3e 2a b8 a8 bd 7a 29 33 be
       0.1610396 0.23719421 -0.082382515 -0.17496291
000260 1f f4 64 3e f4 59 d9 3c cb 2e 03 3d 64 84 bf be
       0.2235875 0.02653215 0.032027047 -0.37405694
000270 4e 48 ae be d3 67 39 be 83 53 cf bd ad fa 3e 3d
       -0.3403954 -0.18106012 -0.101233505 0.04662578
000280 bd 05 87 bd 36 4d 99 be b0 a3 a2 bd f1 6d 7a 3e
       -0.06592891 -0.2994172 -0.07941377 0.24456002
000290 01 85 e6 bc 91 5e 83 bd 5a 42 f6 be e8 d3 d9 3d
       -0.028139593 -0.064145215 -0.48097497 0.10636121
0002a0 5d e6 ca 3e e4 ab 03 be f7 61 01 3e f1 40 94 be
       0.39628878 -0.1285854 0.12635027 -0.28955796
0002b0 bb ae ae 3d ae b5 a2 3e a2 0e ae 3c ee 81 28 3e
       0.08529421 0.31779236 0.021247212 0.16455814
0002c0 11 04 82 3e 82 8f 86 3e 78 b7 86 3e a5 50 d7 3c
       0.25393727 0.26281363 0.2631185 0.026283571
0002d0 a1 df 91 bd 29 a5 88 3e 46 93 4b 3e 8d 0f e4 bd
       -0.07122732 0.26688507 0.19880399 -0.111357786
0002e0 c7 e9 0e be 9b ac 6b be e7 ac 84 bb 5f ad 36 be
       -0.13956366 -0.23015063 -0.004048932 -0.17839573
0002f0 1a 76 55 be 91 ed 27 be 38 e9 59 be 9e 9d d9 bd
       -0.20845833 -0.16399218 -0.21280372 -0.10625766
000300 69 92 89 bb a8 a5 4d be d8 4a b6 be 1e 3b fa bd
       -0.0041983617 -0.20082724 -0.35603976 -0.12218307
000310 9c c8 ea bc a4 66 1e 3e e5 c2 f5 bc 9d 8c 20 be
       -0.028660111 0.15468842 -0.03000016 -0.1567864
000320 46 28 36 bd 65 62 9b bd df 59 3c be b5 17 c6 bd
       -0.044472 -0.07587127 -0.18393658 -0.096724905
000330 b9 7a a3 3d 3a 73 25 3e ab 43 13 3e 2e 4f 42 bc
       0.07982392 0.16157237 0.14381282 -0.011859698
000340 1f 01 d0 3b e5 d3 51 3e 49 0d ff 3d d6 80 2e 3c
       0.00634779 0.20490988 0.12453706 0.010650834
000350 52 2b da bd 19 2b 02 3e fd 35 1f 3e e4 6c dd 3c
       -0.10652794 0.12711753 0.15547939 0.027029462
000360 5d f6 4f bc 77 69 40 3c fc c6 28 3d 5c 6c 9f 3d
       -0.012693015 0.011743895 0.04120539 0.0778434
000370 af 1b dd 3c 42 6f 6b 3d be e8 8c 3c bb 14 3a bc
       0.02699074 0.05747915 0.017200824 -0.011357482
000380 8f 2a 10 3e bc 74 2c be 4f fe 45 bd 1e 3b 01 bd
       0.14078735 -0.16841406 -0.04833823 -0.03155052
000390 41 bc 0a bd 5f 26 d6 3d e6 b1 88 bd e6 3f 82 bd
       -0.03387094 0.104565375 -0.066745564 -0.06359844
0003a0 44 d2 91 3d 68 49 b4 bc cc df f6 3d 3e 85 bb bd
       0.07120183 -0.02200766 0.120544046 -0.09156273
0003b0 36 07 53 bc cc 6a fe 3d 71 82 28 3e 82 e9 1d 3e
       -0.012880137 0.12422714 0.1645601 0.15421107
0003c0 8d a8 d4 bd 91 29 5b bd 20 f4 fd 3d 24 61 da 3d
       -0.10383711 -0.053506438 0.12400079 0.10663059
0003d0 f8 de 5f 3d d6 09 a3 bd da 19 1d be 37 c7 0e bd
       0.054656 -0.079608604 -0.15341893 -0.034857955
0003e0 12 71 20 3e 06 27 ad 3d 3f 6b 91 3d 63 39 71 be
       0.15668133 0.08454709 0.07100534 -0.23557048
0003f0 72 6f 94 be 8e 65 f0 bd 47 66 ca ba 3b f4 ed bd
       -0.28991276 -0.1173812 -0.0015441858 -0.11618849

conv2.bias f4 [16]
000000 3d 5c 5b bb 8c ee f3 bb e1 68 96 3d ad 92 27 3e
       -0.0033471726 -0.0074442085 0.07344223 0.16364546
000010 c9 fb b2 3d 67 35 cb 3d 8f f1 d9 3d 23 a6 6d 3e
       0.087394305 0.09922295 0.10641777 0.23207907
000020 ca a7 94 3c 74 d2 67 3d 48 19 af 3e b3 61 f5 3d
       0.018146414 0.056597188 0.34198976 0.11981525
000030 3c 2c 2f be 2e da 75 3e 4f 36 86 3d 49 75 f9 3d
       -0.17106718 0.2400901 0.06553327 0.121805735

conv3.weight f4 [400, 16, 5, 5]
000000 51 ac 74 be c0 04 27 bd 38 92 fb bc 01 dd 85 3c
       -0.23893858 -0.040776014 -0.030709371 0.016340734
000010 f8 d7 36 bc c4 80 02 3e b6 28 53 3e 2e 28 c0 3d
       -0.011159889 0.12744433 0.20620999 0.09382664
000020 04 a0 f4 3d 9c 86 3e 3d e3 1e 84 bd 36 ae 16 bd
       0.11944583 0.046515092 -0.06451204 -0.036787234
000030 98 4c 6b 3e d4 63 79 3e d8 2f f4 3c 11 03 72 bd
       0.22978437 0.24354488 0.02980797 -0.059084956
000040 67 d3 fc bd 78 de 4f 3d 50 43 2c 3d 82 f6 a4 bc
       -0.12345009 0.050749272 0.04205638 -0.020137075
000050 73 07 d7 bd 4f c1 90 bd 42 12 19 bb 53 08 c7 3d
       -0.10499468 -0.07068121 -0.002335683 0.097183846
000060 9a c9 33 3e d7 a6 cb bd 0a 77 c0 bc 67 cc f0 bd
       0.17557374 -0.099439315 -0.023494262 -0.11757737
000070 62 37 4f 3d 28 7e e0 bd 52 76 58 bd 21 41 56 be
       0.050589927 -0.109615624 -0.052847214 -0.20923282
000080 32 44 d5 bd a3 95 6f bd 42 99 08 3e 61 95 0f 3e
       -0.10413398 -0.058492314 0.13339713 0.14021827
000090 ee 54 dd bd aa c9 66 3d 34 20 48 3d 0a e5 29 3e
       -0.10807215 0.056344666 0.048858836 0.16591278
0000a0 f2 d5 f9 3d cc 63 11 be 9d 5a b1 bd 23 59 0e 3e
       0.1219901 -0.14198226 -0.08659861 0.1390119
0000b0 57 81 60 3e 2e 78 ee 3d 05 b3 89 bd 54 cc 42 be
       0.21924339 0.11644016 -0.067235984 -0.19023257
0000c0 a0 ac b8 3d 92 d3 51 3d 66 2d 10 3e ac 61 78 3d
       0.090173006 0.05122716 0.14079818 0.060640022
0000d0 95 07 c3 3d 49 41 27 3e 55 91 d8 3d 3c e5 57 bd
       0.095229305 0.16333498 0.10574595 -0.05270885
0000e0 6c 10 cb 3c 37 04 0a 3e e2 1e 10 3e e2 2c 2c bb
       0.024788104 0.1347817 0.14074281 -0.002627187
0000f0 66 e3 31 bc 84 8c b8 3b ee 03 54 be 9e 3f a2 bd
       -0.010857439 0.005631985 -0.20704624 -0.0792229
000100 61 07 17 3e 5e 43 c3 3c d1 98 0e 3d b0 7b cc bd
       0.14748909 0.023835834 0.034813706 -0.09984529
000110 11 41 7c 3d f3 f0 a7 3d d3 cf 5b 3e af 17 ce 3d
       0.06158549 0.08200254 0.21465997 0.10063111
000120 ae 1c 9c 3c 8d 8c 8a be 29 e6 c4 b9 7d 87 c8 3c
       0.019056644 -0.27060357 -0.00037555516 0.024478668
000130 fc 7e 76 3d 54 dc b0 bb eb 4f a7 bc c9 61 b8 bc
       0.060179695 -0.005397359 -0.02042385 -0.022507565
000140 3d 1d 94 ba 73 33 48 3d fe 71 0f 3e 8d 06 2b 3e
       -0.0011300218 0.04887719 0.14008328 0.16701718
000150 9c 7f 6d 3d c3 61 f7 bd 97 8f 06 3c 8e d3 f6 3d
       0.057983026 -0.120791934 0.008212945 0.120520696
000160 5b 2c 73 3d b9 63 1c 3d bd d0 84 bc c1 fd 8b bd
       0.059368473 0.03818104 -0.016212815 -0.06835509
000170 a4 f9 44 3d ba 8a de 3d fd e1 67 3e 93 b4 c9 3c
       0.04808964 0.10866304 0.22644801 0.024622237
000180 5e df 4d bd 4d 9e dc 3c 02 86 8f bd 36 11 da bc
       -0.050261848 0.026930952 -0.07007982 -0.026619535
000190 b4 a6 95 bd ec 16 02 3d 34 73 95 bd 5e df 25 be
       -0.07307187 0.03176014 -0.07297364 -0.16198489
0001a0 12 e4 89 be e0 62 a1 bc 10 75 81 3d 7f 39 b1 bc
       -0.26931816 -0.019700468 0.06321156 -0.021633862
0001b0 b2 51 38 bd f6 c0 97 bd 08 de d3 bd 3d e6 61 3c
       -0.044999786 -0.07409851 -0.103450835 0.013787803
0001c0 42 46 74 3d 50 e8 44 3c 21 ec 0b be a2 48 9b 3d
       0.059637316 0.012018278 -0.13664295 0.07582213
0001d0 c6 bb 45 3c 96 6a 1c 3e 68 d5 20 3d aa 5e 05 be
       0.012068694 0.15275034 0.03926602 -0.13024393
0001e0 f4 90 49 be 3b f4 40 be 45 79 12 be 87 e6 e5 3d
       -0.19684201 -0.18843167 -0.14304073 0.1122561
0001f0 84 33 c0 bd bb 51 20 3d f8 2f bc bc 22 db 9e bd
       -0.09384826 0.039140444 -0.022972092 -0.0775664
000200 6c dd 72 3d c4 56 a2 3d 04 84 b7 bd f2 bb ea bd
       0.059293196 0.079267055 -0.08960727 -0.11461629
000210 42 25 2a be c8 25 14 3e b6 b2 be 3d 37 9f e3 bd
       -0.16615775 0.14467537 0.0931143 -0.11114352
000220 86 c7 c7 3d 1b 14 79 be 65 5f aa bd 5e 0b c1 bd
       0.09754853 -0.24324076 -0.08318976 -0.09425996
000230 87 07 22 bd b6 7d 80 3d 9d ee 33 bd f3 78 c6 bc
       -0.03955796 0.062739775 -0.04392873 -0.024227595
000240 5a 4b c1 3d 12 43 12 bd b5 5d f1 3c 20 3a 5f 3d
       0.094382 -0.035708494 0.029463628 0.05449879
000250 89 4d 49 bc 8a ac 9a bd 84 67 13 3e 9f 83 a8 3d
       -0.012286552 -0.075524405 0.14394957 0.0822823
000260 db d8 df 3d 05 55 b4 3d 6f f7 b0 3d bf 3c 97 3d
       0.10930034 0.08805279 0.08640944 0.07384633
000270 e7 33 92 be 8d d3 49 be 39 98 a0 bd 80 b6 95 3b
       -0.28555223 -0.19709606 -0.07841534 0.004568875
000280 85 74 39 3d 9f 7a 0f be 16 ac 02 bd 8a 6b 4a 3c
       0.045277137 -0.1401162 -0.031902395 0.012354741
000290 6d 84 d9 3d 1f 52 b0 bc 46 76 00 3d c3 7d 0a be
       0.10620961 -0.021523533 0.031362794 -0.13524537
0002a0 cf ef fb bd 25 ae 81 3d e3 4b 53 3d 08 78 5e 3d
       -0.12301599 0.063320436 0.051586043 0.05431369
0002b0 e6 a3 2c bd 36 54 f0 bd 0d 62 87 bd 69 42 27 be
       -0.042148493 -0.11734812 -0.066104986 -0.16333927
0002c0 07 10 2b 3e 81 e0 48 3e e9 14 42 3d 9a 5d 92 bd
       0.16705333 0.19616891 0.047383223 -0.07146759
0002d0 8c 39 a0 3d 4d d7 2a 3e b6 a3 02 3e c5 69 9b 3d
       0.07823476 0.16683693 0.12757763 0.07588533
0002e0 51 7a 05 bd 04 2c 16 bd aa 3e 97 3d 6b c1 8d 3e
       -0.032587353 -0.03666307 0.07384999 0.2768663
0002f0 2e d2 a3 3e 43 b2 e9 3c 67 73 bd 3d d4 b3 55 bc
       0.31996292 0.028527385 0.09250527 -0.013043363
000300 b4 a9 51 3e 9a f1 0c 3e 16 20 7c bd ec 3b cf 3d
       0.20474893 0.13764039 -0.061554037 0.10118851
000310 d6 f8 ca bd e4 6d bd 3d be 43 e8 3d 9a 1f 80 bb
       -0.09910743 0.092494756 0.11341046 -0.003910017
000320 32 72 26 bc f7 db bc bc e3 5e 7b bd 54 8b f0 3d
       -0.010159062 -0.023054106 -0.061369788 0.11745325
000330 2a 07 bb bc b2 f7 44 3c a3 68 ab 3d 26 4f 7a bd
       -0.022830565 0.012021946 0.08369567 -0.061110638
000340 b2 a5 bf 3c 15 1e 87 3d ff 59 0b bc 4a 01 73 3e
       0.02339444 0.065975346 -0.008505343 0.2373096
000350 42 bb 18 3e 47 b5 a0 be 56 9a 3b bd 41 27 79 3d
       0.14915183 -0.31388304 -0.045801483 0.06082845
000360 dc 66 d6 bd 24 a7 9a bd ea 93 30 be 3d d5 81 3a
       -0.104688376 -0.07551411 -0.17243925 0.0009905469
000370 aa 51 31 3e df 1e 61 3e cf 7e 04 bd a1 18 f4 3d
       0.17316309 0.21984433 -0.032347497 0.1191876
000380 f3 4a 8b 3d ff 70 28 be d4 ab ca be d0 1b 10 3d
       0.06801405 -0.16449355 -0.3958422 0.035182774
000390 72 11 db 3d bb 8e 13 bd 96 21 6b 3d 1c a7 1b be
       0.10696687 -0.03602479 0.057405077 -0.15200466
0003a0 ac fe 92 be ef ab 39 3e 73 f5 a6 3c b4 9b a6 bd
       -0.28709924 0.18131994 0.020380711 -0.08135167
0003b0 d5 7b 52 be cd 2b e9 be 2a 17 0e 3d 1d 87 8c bd
       -0.2055505 -0.4554123 0.03469006 -0.06861708
0003c0 52 94 47 3d 6f b3 70 be 71 c4 83 be 02 8b 1f be
       0.048725434 -0.23505948 -0.2573581 -0.15580371
0003d0 27 fc 2a 3c 29 03 a2 bd a2 e1 2d be fe 6b 95 bb
       0.010436094 -0.07910759 -0.16980603 -0.004559993
0003e0 69 15 a8 be b4 d2 11 bd 75 03 ee bd a5 0d 89 bd
       -0.32828835 -0.035601333 -0.11621753 -0.066920556
0003f0 83 ae 2a bd 99 fe 0a 3d b2 94 9e bd 64 dd a9 bd
       -0.041670334 0.03393421 -0.07743205 -0.0829418

conv3.bias f4 [400]
000000 95 aa e5 bd 48 8c 4e bd 74 1a 5f 3e 44 c6 36 bb
       -0.112141766 -0.05042675 0.21787435 -0.0027889172
000010 4e 1f cf 3d 23 27 89 3d ab 29 2e 3e 3c 40 c6 3d
       0.10113393 0.06696918 0.17008083 0.096802205
000020 34 25 d7 3c 16 52 36 3d 34 26 23 bd f7 da c6 bc
       0.026262857 0.044511877 -0.039831355 -0.024274332
000030 4b 28 e1 3d 00 7f 03 bd e3 56 6b 3e b7 9d 81 3e
       0.109940134 -0.03210354 0.22982363 0.2531564
000040 bc 42 02 3d 90 4e aa bc 3c 87 19 3e db c7 ff 3c
       0.031801924 -0.020789415 0.14992994 0.031223228
000050 e1 42 52 bd 4d 42 e6 3d 72 f4 cc 3d 71 73 97 bb
       -0.051333312 0.112431146 0.10007562 -0.004621916
000060 d3 5e 7f 3d 14 ae 2d bd 4d b4 3c bd 6e 63 e4 bb
       0.06234629 -0.042402342 -0.046070386 -0.0069698608
000070 e1 31 08 3d cc a6 5f 3b 80 0e f6 3c e6 1f 31 bd
       0.033250693 0.0034126518 0.030036211 -0.04324331
000080 04 2d 0d 3d cc 2c dd bd 04 0d fd 3b 4d 6a 8c bc
       0.03446676 -0.1079956 0.007722499 -0.017140532
000090 dd 25 fa 3d bc 82 b5 3d 4d ba df 3d 26 db 1f 3e
       0.12214253 0.08862826 0.10924206 0.15610942
0000a0 14 d8 8e bd 25 42 fe bd bb 34 9c b9 f3 61 b2 3d
       -0.069748074 -0.1241496 -0.00029793926 0.087100886
0000b0 5f e9 0f 3e c2 73 3c bd 3e 7a 6c 3c 62 2e 6c 3d
       0.14053868 -0.046008833 0.014433442 0.05766142
0000c0 30 c6 b7 bc cd 3d b9 bd 0c 4b 1b bd 64 17 ab bd
       -0.02243337 -0.09044991 -0.037913367 -0.08354071
0000d0 ef 53 1e 3e 2f 5a b7 3d 62 83 9f bd 17 86 63 3e
       0.15461706 0.08952748 -0.07788731 0.2221912
0000e0 2c b4 02 3c ce 33 88 bb 70 a6 21 3b 3c 1d 3a 3d
       0.007977527 -0.004156566 0.0024665855 0.045438036
0000f0 75 ce 75 3e ae ed 9e bb 22 bc 69 bd 66 df 4d 3d
       0.24004538 -0.004850111 -0.057064183 0.050261877
000100 bd 5c 3e 3e ab c1 86 3e ed b9 1d 3d 7e bb f5 bc
       0.18590064 0.26319632 0.03850739 -0.02999663
000110 2c ee 09 3d 37 55 d2 3d ed 2c 27 3c 3e 1b ae bb
       0.033674404 0.1027016 0.010203582 -0.005313306
000120 62 52 bd 3d db 57 ee bb 8c 66 4e 3e 7c 6d b9 3c
       0.09244229 -0.007273657 0.20156306 0.022635214
000130 6c 54 f6 3d 0b ff 08 3e 86 a8 4e 3d f9 29 a0 3e
       0.12027821 0.13378541 0.050453685 0.31282023
000140 a5 0a b0 3d 65 00 07 be c1 19 b9 3d 7b 64 5d 3d
       0.0859578 -0.13183744 0.09038115 0.054050904
000150 03 73 bc bc 74 83 7a 3e f1 7e 73 3d 54 53 cb bc
       -0.02300406 0.24464208 0.059447233 -0.024820007
000160 67 e7 9b bd 7d 85 f6 3c 6c 02 45 3e b1 03 73 3d
       -0.07612496 0.030092949 0.19239205 0.059329692
000170 1e b3 a6 3d ef 20 cd 3c 8c 3a 49 bd f1 f3 be 3a
       0.08139633 0.025040118 -0.0491281 0.001456855
000180 64 e8 88 bd f6 f5 5c 3e 48 f0 ed 3d cc 1d 20 3b
       -0.0668495 0.21578202 0.11618096 0.0024431823
000190 df 82 18 3d 8e 80 4f bc d3 e6 81 bd 3a f2 ac 3d
       0.037234183 -0.012664927 -0.06342854 0.084446386
0001a0 0a 83 71 bd 4e bc c9 bc 9f f7 4c 3e 5a 80 b7 bd
       -0.05896286 -0.024625923 0.20016335 -0.08960028
0001b0 e8 f4 28 be fa 13 ac 3c a0 bc 0c bd 2a 7b 33 bb
       -0.16499674 0.02100562 -0.034359574 -0.0027386644
0001c0 d2 85 03 bd b6 ac 66 3e 0c 90 8f bb b0 ef 93 b9
       -0.032110043 0.22526821 -0.0043811854 -0.00028216606
0001d0 bc bd fa 3c af 78 5a 3d 0a a0 cc 3c f8 01 67 3e
       0.03060805 0.05333775 0.024978656 0.22559345
0001e0 b3 7e 75 3d 6b 38 45 bd 32 20 86 3e 4c d9 8a bd
       0.059935283 -0.048149507 0.26196438 -0.06779727
0001f0 09 7e 39 be d3 20 ae 3d ea 22 d1 bc e2 17 7b bd
       -0.18114485 0.085023545 -0.025529344 -0.061302073
000200 46 b4 90 3d 9e 7d 06 3e a7 3a 2a 3d f9 09 00 bd
       0.070656344 0.13133857 0.04155984 -0.03125951
000210 04 d8 b2 bc 80 d8 3e be 96 14 74 3e 77 c4 52 3e
       -0.02183152 -0.18637276 0.23835978 0.20582758
000220 73 15 70 3c c0 77 fd 3b 79 89 58 3e e0 6f 80 bd
       0.014653551 0.0077352226 0.21146192 -0.062713385
000230 a2 60 6b 3e 34 58 3b 3c 69 6a 76 3e a0 1d 45 bd
       0.22986081 0.0114346035 0.2406403 -0.048123956
000240 16 6e 31 3b b4 36 ff 3b 01 ca fc 3c d7 9f 9f 3c
       0.0027073673 0.0077885035 0.030858042 0.019485397
000250 5a a7 4e 3e c5 a0 9c 3d 0d 6b 56 3e 86 c7 78 3c
       0.20181027 0.07647852 0.20939274 0.015184289
000260 61 f9 16 3c 3a a4 1a 3d 74 46 25 3d c3 ae 62 bd
       0.00921473 0.037754275 0.040350392 -0.055342447
000270 ae f6 a3 3d 45 5c a8 3b e0 15 59 bd 6b 1a 06 3e
       0.08006035 0.0051379525 -0.052999377 0.13096015
000280 cd 54 9f 3d b8 8b 8d 3e 4f d7 35 bb 5a 39 5f bd
       0.07779846 0.2764566 -0.0027746742 -0.054498054
000290 51 ef f7 bb 14 11 e6 3d 2a f7 3f 3c d4 b4 0b 3c
       -0.0075663705 0.11233726 0.011716643 0.0085269995
0002a0 f3 b2 0a 3d 57 37 8c bd ff 06 17 3e 3b 7a f5 3d
       0.033862066 -0.06846493 0.14748763 0.11986204
0002b0 00 40 40 3e 86 38 dd bd c5 31 1b 3e 94 32 54 3c
       0.18774414 -0.108017966 0.15155704 0.012951512
0002c0 3d 8a 97 3b ee 60 37 3e bc d0 51 be a6 b7 94 3b
       0.0046246336 0.1790807 -0.20489782 0.004538494
0002d0 83 27 3a 3e ec df 4e bd f4 96 c5 bd 0e 34 ab 3c
       0.18179135 -0.050506517 -0.09647933 0.020898845
0002e0 eb 0f 77 3d dc 26 ce 3d 8f 88 27 3e 25 c9 6d bc
       0.060317915 0.100660056 0.16360687 -0.014513289
0002f0 42 00 cb 3d 45 91 12 3d 22 03 86 3c b6 66 fb 3d
       0.099121585 0.03578307 0.016358916 0.1227545
000300 74 ad 85 bd 81 a7 4a bd 52 c5 c8 3c 8c a6 00 3e
       -0.06527224 -0.04947615 0.024508152 0.12563533
000310 9f 3e 57 3e b3 a2 8f 3c 2a 17 de bd 9b 04 ab bd
       0.21019982 0.017533636 -0.10844262 -0.08350488
000320 4a 05 9e bc 5b 56 8a 3d bc 97 88 3d 50 77 0d 3a
       -0.019289631 0.06754752 0.06669566 0.0005396502
000330 67 21 69 bd 2d 3a 94 3e 21 0b 76 3e 31 27 1e bd
       -0.05691662 0.28950635 0.24027683 -0.038611595
000340 dd 51 1b bd ab ac 4e bc ba 4f 6f 3e 10 7b bc bb
       -0.037919868 -0.012614409 0.23370257 -0.005751975
000350 66 34 56 3e 97 dd 73 3e b8 15 db bd c7 e3 0d bd
       0.20918426 0.23814999 -0.10697502 -0.034641054
000360 49 78 03 3e fe 46 12 bd 26 81 09 3e a3 3c 8a 3d
       0.12838854 -0.035712235 0.13428172 0.06749847
000370 ee 62 4b 3e 15 9a 82 3d 59 39 ad 3d db 27 67 bd
       0.19861957 0.06377045 0.08458204 -0.056434494
000380 e8 3e fd bc 52 94 19 3e 8c 4d 41 bd db 18 92 3d
       -0.030913785 0.14997986 -0.047193095 0.07133647
000390 ab c2 b9 3e 8a c3 cc bd b1 6a 25 3d e0 c8 5b bd
       0.36281332 -0.099982336 0.040384952 -0.053658366
0003a0 c5 48 05 3d 90 33 f1 bd c4 54 05 3b cc b9 40 3e
       0.0325401 -0.11777413 0.0020344714 0.18820876
0003b0 02 ab ba bb 58 8a 95 3d 3c c4 83 3d 12 1a 23 bd
       -0.0056966553 0.073017776 0.06433913 -0.039819784
0003c0 bf 77 85 3e 98 49 21 bd 1b 7b 17 3e 99 ab 94 3c
       0.26067922 -0.039376825 0.14793055 0.01814823
0003d0 cc 4b 93 bb 62 bd bd bd 41 53 09 be 2e 4e 66 bd
       -0.0044951197 -0.092646375 -0.13410665 -0.0562269
0003e0 81 d7 0d 3d 3a 66 24 3d 5a 23 0a 3e dd af 9e bd
       0.03462935 0.040136553 0.13490048 -0.07748387
0003f0 ab a9 f6 3d 9f 57 98 3d 1c f7 2a 3e fe 9d fb bc
       0.1204408 0.074385874 0.16695827 -0.030714985

fc.weight f4 [43, 800]
000000 b6 ee 5f be b2 93 40 bc e5 82 61 3e 3d 1f 30 bc
       -0.21868405 -0.011753963 0.22022589 -0.010749635
000010 fa 69 3f bb 38 5a 79 bc c5 96 a0 bb da e1 14 3e
       -0.0029207454 -0.015219264 -0.0049007856 0.1453928
000020 a2 5a e9 bd 9f 26 ec bd ef e2 6a bc f8 7f d5 3d
       -0.1139424 -0.11530804 -0.014336332 0.10424799
000030 82 d5 11 3c 37 4b 11 3e f1 cd e6 bc 75 18 08 be
       0.008901002 0.14188848 -0.028174372 -0.1329058
000040 71 dd 24 3d 9b bf af 3d 6f 57 a3 3d 5b 8e cd be
       0.040250245 0.08581468 0.07975661 -0.4014767
000050 1a df b7 be 85 8b c6 bd 9f 4e 49 be 5b b3 76 be
       -0.359124 -0.0969458 -0.19658898 -0.24091856
000060 87 4e 90 3d ae 48 18 bb 12 4a 1b 3b 52 da fa bc
       0.07046228 -0.002323668 0.0023695272 -0.030621681
000070 d3 cb 5e bc 58 4f 84 3c ca 0b 08 bd b0 ab de 3b
       -0.0135984 0.016151115 -0.033214368 0.006795369
000080 8c de 81 be 0d a0 82 be c8 ec 61 bd 94 56 0e 3d
       -0.25365102 -0.25512734 -0.055157453 0.034750536
000090 aa 78 9d 3d e8 29 97 be 6f cf 55 3e 0e fa cc 3d
       0.076890305 -0.2952416 0.20879911 0.10008632
0000a0 d3 01 9f bd ef cf 07 3e 38 d2 51 be c5 3a 64 be
       -0.0776402 0.13262914 -0.20490348 -0.22288044
0000b0 28 7f 09 be 25 16 ca 3c 3f 62 2a be 11 53 d6 be
       -0.13427413 0.024668762 -0.1663904 -0.4186025
0000c0 3d 07 ed bc e9 37 2a bd 31 83 ab 3b 3c e1 cd be
       -0.028934116 -0.041557226 0.005234145 -0.40210903
0000d0 cc 9f 8f be 8a 23 da bd 08 54 db bb f6 99 da 3d
       -0.28051603 -0.1065131 -0.006693367 0.10673897
0000e0 27 fc d0 be 57 23 9f be 04 43 00 3e 02 d3 5d be
       -0.40817377 -0.3108165 0.12525564 -0.21662524
0000f0 d7 13 5b bd e8 ef 67 be 47 e6 c0 3d ee dc 9e 3d
       -0.053485718 -0.2265011 0.09418922 0.07756983
000100 49 a2 c3 3d 95 e4 8a be af 79 63 bd ab b2 86 3c
       0.09552438 -0.2712752 -0.05553597 0.016442617
000110 2e f4 63 3d 0c 58 8b 3b 3c cc 3b bd c6 ae 3a 3c
       0.05565279 0.0042524394 -0.04584907 0.011394208
000120 a2 81 2e 3d 4d e4 ad 3c bc 12 b2 be 70 49 2a be
       0.042604096 0.021227026 -0.34779918 -0.16629577
000130 24 ef 5b be 33 a5 5a 3e 85 9e dc bd ba fa a3 3d
       -0.21477944 0.21352081 -0.10772423 0.08006807
000140 be 2f 2d 3c 37 51 8d bc 9f 3c be be 9e c2 75 bd
       0.010570465 -0.01725064 -0.37155625 -0.060000055
000150 c2 60 5f bb a2 84 5f 3b 42 c0 99 bd f5 84 0e 3e
       -0.0034084772 0.0034106155 -0.075073734 0.13917907
000160 6c ad a5 3c d6 ea 18 3e cf 7a 77 3d 1c 2d 94 be
       0.020224296 0.14933333 0.060419854 -0.28940666
000170 3b 74 3f 3c 77 00 18 be 45 6f 39 ba 94 28 a5 bc
       0.011685426 -0.14843927 -0.00070737704 -0.02016095
000180 e6 61 9e bd 05 86 19 be a2 bc 0a be 02 16 87 be
       -0.077335164 -0.1499253 -0.1354852 -0.26383978
000190 a4 42 0c 3d 67 b5 1f be 3e da ca bd e7 ef 9f bd
       0.03424324 -0.15596543 -0.09904908 -0.078094296
0001a0 4f 5f 3c bd 1e 86 36 3c 99 1e 4b 3d ba e2 92 bc
       -0.04598933 0.0111403745 0.049589727 -0.017930377
0001b0 c2 98 1f be 04 4d bc 3b 17 04 46 bd 7f aa 5c 3e
       -0.15585616 0.0057464857 -0.048343744 0.21549414
0001c0 4b 5c a3 3c c3 f1 6c be 10 c9 ab be f2 9f 9f bd
       0.01994147 -0.231391 -0.33551836 -0.07794179
0001d0 48 20 86 bc cc 42 cd bc d2 6e 87 3c f4 2e 67 be
       -0.016372815 -0.025056265 0.016532335 -0.22576505
0001e0 37 a3 8f be f2 67 89 3c de d3 5c be a9 01 eb bd
       -0.2805421 0.016773198 -0.21565196 -0.11474926
0001f0 f6 64 60 3d 11 34 12 be ae 01 34 3d f4 15 54 3d
       0.054783784 -0.14277674 0.043946914 0.05177875
000200 aa 93 35 bd 65 33 5a be ae 74 23 be 40 9d 3c bd
       -0.044330277 -0.21308668 -0.15962479 -0.046048403
000210 6b 56 0e be b6 bb 38 be 90 b1 ed 3d 12 04 e8 bb
       -0.13900153 -0.18040356 0.11606133 -0.0070805633
000220 8b 22 98 be 97 a3 1e bc 61 9f f6 bd 10 6e 77 bd
       -0.29713854 -0.009682558 -0.12042118 -0.0604077
000230 82 21 ad 3c fd 5d c7 bd bf e3 1d be 62 9b 09 be
       0.021134142 -0.09734724 -0.1541891 -0.1343818
000240 76 4c e9 bd 44 63 72 be 02 c9 16 3e c6 dc 1d bd
       -0.11391537 -0.2367068 0.14725116 -0.038540624
000250 78 bc 36 3a 35 02 b6 be 2b c4 12 3c 94 c7 04 be
       0.0006970833 -0.3554856 0.008957903 -0.12966758
000260 03 4f 69 be b6 ec a7 bd a3 2b 84 3d f3 a3 2f 3c
       -0.22784047 -0.08199446 0.064536355 0.010720241
000270 2d 7f 01 3e ec 84 3d 3c 6b 70 12 3e 41 7d c3 be
       0.1264617 0.011567336 0.14300697 -0.381815
000280 15 e4 2d 3d 6a a8 43 be f1 3f bd bc 44 92 21 bd
       0.042453844 -0.19107214 -0.023101779 -0.03944613
000290 fb de 3e 3c 6b fc 00 3e 4e 61 21 bc 78 94 b1 be
       0.011649842 0.1259629 -0.009849859 -0.34683585
0002a0 fe c2 80 be 73 c3 6a be f2 17 c0 be 53 5a 2c be
       -0.25148767 -0.2292612 -0.3751827 -0.16831331
0002b0 1e ba e8 bc 6a 95 61 be 36 92 c1 be c8 b3 53 bd
       -0.02840906 -0.22029653 -0.37806863 -0.051685125
0002c0 cf ee 5f 3c 4f d4 c0 bc ba d7 a2 be 29 fd eb bc
       0.013667776 -0.023538737 -0.3180521 -0.02880724
0002d0 4b b6 9c be dc 93 ab bc cf 1c b3 bd 9a f2 c9 bd
       -0.30607828 -0.020944528 -0.08745729 -0.09860726
0002e0 67 e9 1c 3e 72 85 4f be c5 c7 a5 3d c2 e6 7d be
       0.15323411 -0.20265749 0.08094744 -0.24795058
0002f0 24 b3 d5 bd 51 ae 96 3d 83 bd 7d bc 36 9a 06 3d
       -0.10434559 0.07357467 -0.015487078 0.03286191
000300 80 68 3b be 57 0b 43 bc f3 bf b2 bc c6 38 c4 be
       -0.18301582 -0.011904559 -0.021820044 -0.38324565
000310 4e 05 ff bd eb 53 83 bb 3c 2d d3 3b c0 46 53 bd
       -0.12452184 -0.0040078065 0.0064446013 -0.051581144
000320 d6 e2 d9 bb c9 d4 91 3c 06 6f 69 be 98 94 3b bc
       -0.0066493554 0.01780166 -0.22796258 -0.011449002
000330 71 21 33 bc 43 ed 8a bd 0c 10 86 3d f2 b5 7b bc
       -0.010933266 -0.06783535 0.065460294 -0.015363203
000340 2b 1f c9 bd c8 63 09 bd 44 fa a8 be 8c 57 b2 bc
       -0.09820398 -0.033542424 -0.33003438 -0.021770261
000350 42 51 cd bd c4 ba bf bd 6d c2 1c bc fe 52 78 3c
       -0.10025264 -0.093617946 -0.009567839 0.015156506
000360 cd 1c c8 3c 71 a2 f0 bc a8 e2 5c 3e 25 5d f1 bd
       0.024427796 -0.029374333 0.21570837 -0.11785344
000370 e1 d3 4a 3d ce 65 8d be 55 a7 8b be 74 1f 82 bc
       0.04951847 -0.27616733 -0.27276102 -0.015884139
000380 ab f9 82 bc 84 b0 63 be 9e 59 74 3c ba 6d f6 bd
       -0.015988192 -0.22235304 0.0149139445 -0.120326474
000390 8b 0e ce bc 4c 61 f7 be 81 0e 26 be 56 68 4f bd
       -0.025153419 -0.4831642 -0.1621647 -0.050636612
0003a0 83 bf 92 3d c1 b2 f4 3d b9 65 b5 bc 99 dd 88 bd
       0.07165434 0.11948157 -0.022143232 -0.066828914
0003b0 ab 3e 27 be cc 15 4f 3d 18 9a b8 3c 90 a0 03 bd
       -0.163325 0.050557896 0.022534415 -0.032135546
0003c0 14 1d 52 3c 98 75 16 3c a7 97 4b 3d 56 44 0a bd
       0.012824316 0.00918331 0.049705174 -0.033756576
0003d0 09 eb 21 bd a1 f6 b2 3d e2 61 01 be 70 ef 5b be
       -0.039530788 0.08738447 -0.12634996 -0.21478057
0003e0 8b ce 88 3d a5 f1 b6 bd a8 62 27 be 02 ad c8 3d
       0.0668002 -0.08932809 -0.16346228 0.097986236
0003f0 b3 df a2 be e5 5d a9 3d 22 6f fa bd 4e 5e f2 bb
       -0.31811294 0.08269862 -0.12228228 -0.007396496

fc.bias f4 [43]
000000 96 b4 0a bd 97 bf 19 3e da e0 ad 3d d4 b8 6e 3e
       -0.033863626 0.15014492 0.08490153 0.23312694
000010 9c 45 6d 3c 9f dc d3 bd e9 19 73 3d 46 6a 4a bd
       0.014481928 -0.103448145 0.05935088 -0.049417756
000020 26 d2 a9 3d ea d9 a7 3c d6 62 42 be 7f ef e2 bd
       0.08292036 0.020489652 -0.18983015 -0.110808365
000030 d6 37 43 3e ea 89 ad 3c 60 a5 36 b9 8f ec bb bd
       0.19064268 0.021183927 -0.0001741848 -0.09175979
000040 62 f9 67 be 34 95 99 bd 85 06 1b 3d 28 3c 3a bd
       -0.22653726 -0.07499161 0.037848014 -0.045467526
000050 95 81 36 3e 60 a2 94 bd 54 14 4f bd 0d 6a b4 bd
       0.17822869 -0.07257533 -0.050556496 -0.0880929
000060 09 8d 10 3e 75 78 d6 3c 25 5e d3 bd 04 e6 82 3d
       0.141163 0.026180485 -0.10320691 0.06391528
000070 f0 b8 95 bd 30 bd 5b bd 3b 3e 03 3e 91 11 44 3e
       -0.07310665 -0.05364722 0.12816708 0.19147326
000080 b1 ba ab bd d1 92 f9 3c 5c 2c e9 bd 21 d7 b1 bd
       -0.08385218 0.030465515 -0.11385414 -0.08683611
000090 d4 93 20 bd 76 24 1a be 77 96 60 bd 10 0c b3 bd
       -0.03920348 -0.15052971 -0.054830994 -0.08742535
0000a0 52 e5 0f be 95 f5 4c be 49 de 3d be
       -0.14052323 -0.20015557 -0.18541826
